…
2025-07-23 13:58:51,493 INFO    MainThread:16888 [wandb_init.py:setup_run_log_directory():704] Logging internal logs to c:\Users\shado\Documents\Master Thesis\INFORM_marine-main_new\INFORM_marine-main\wandb\run-20250723_135851-5ruzin3e\logs\debug-internal.log
2025-07-23 13:58:51,495 INFO    MainThread:16888 [wandb_init.py:monkeypatch_ipython():622] configuring jupyter hooks <wandb.sdk.wandb_init._WandbInit object at 0x000002280D00B2C0>
2025-07-23 13:58:51,497 INFO    MainThread:16888 [wandb_init.py:init():830] calling init triggers
2025-07-23 13:58:51,503 INFO    MainThread:16888 [wandb_init.py:init():835] wandb.init called with sweep_config: {}
config: {'model': ResNetAutoEncoder(
  (encoder): Sequential(
    (0): Conv2d(6, 64, kernel_size=(3, 3), stride=(1, 1), padding=(1, 1), bias=False)
    (1): BatchNorm2d(64, eps=1e-05, momentum=0.1, affine=True, track_running_stats=True)
    (2): ReLU(inplace=True)
    (3): Identity()
    (4): Sequential(
      (0): BasicBlock(
        (conv1): Conv2d(64, 64, kernel_size=(3, 3), stride=(1, 1), padding=(1, 1), bias=False)
        (bn1): BatchNorm2d(64, eps=1e-05, momentum=0.1, affine=True, track_running_stats=True)
        (relu): ReLU(inplace=True)
        (conv2): Conv2d(64, 64, kernel_size=(3, 3), stride=(1, 1), padding=(1, 1), bias=False)
        (bn2): BatchNorm2d(64, eps=1e-05, momentum=0.1, affine=True, track_running_stats=True)
      )
      (1): BasicBlock(
        (conv1): Conv2d(64, 64, kernel_size=(3, 3), stride=(1, 1), padding=(1, 1), bias=False)
        (bn1): BatchNorm2d(64, eps=1e-05, momentum=0.1, affine=True, track_running_stats=True)
        (relu): ReLU(inplace=True)
        (conv2): Conv2d(64, 64, kernel_size=(3, 3), stride=(1, 1), padding=(1, 1), bias=False)
        (bn2): BatchNorm2d(64, eps=1e-05, momentum=0.1, affine=True, track_running_stats=True)
      )
    )
  )
  (compressor): Sequential(
    (0): Conv2d(64, 3, kernel_size=(1, 1), stride=(1, 1))
    (1): BatchNorm2d(3, eps=1e-05, momentum=0.1, affine=True, track_running_stats=True)
    (2): Sigmoid()
  )
  (decoder): Sequential(
    (0): Conv2d(3, 64, kernel_size=(3, 3), stride=(1, 1), padding=(1, 1))
    (1): BatchNorm2d(64, eps=1e-05, momentum=0.1, affine=True, track_running_stats=True)
    (2): ReLU()
    (3): Conv2d(64, 6, kernel_size=(3, 3), stride=(1, 1), padding=(1, 1))
    (4): Sigmoid()
  )
), 'batch_size': 64, 'learning_rate': 0.001, 'num_epochs': 20, '_wandb': {}}
2025-07-23 13:58:51,503 INFO    MainThread:16888 [wandb_init.py:init():871] starting backend
2025-07-23 13:58:55,757 INFO    MainThread:16888 [wandb_init.py:init():874] sending inform_init request
2025-07-23 13:59:02,197 INFO    MainThread:16888 [wandb_init.py:init():882] backend started and connected
…
